Model: "model_7"
_________________________________________________________________
 Layer (type)                Output Shape              Param #   
=================================================================
 input_BiLSTM (InputLayer)   [(None, 14, 9)]           0         
                                                                 
 bilstm1 (Bidirectional)     (None, 14, 64)            10752     
                                                                 
 bilstm2 (Bidirectional)     (None, 14, 64)            24832     
                                                                 
 bilstm3 (Bidirectional)     (None, 14, 64)            24832     
                                                                 
 bilstm4 (Bidirectional)     (None, 14, 64)            24832     
                                                                 
 TimeDisDenseLSTM (TimeDistr  (None, 14, 16)           1040      
 ibuted)                                                         
                                                                 
 dense_18 (Dense)            (None, 14, 6)             102       
                                                                 
=================================================================
Total params: 86,390
Trainable params: 86,390
Non-trainable params: 0
_________________________________________________________________
None
model                                             : Test   | Val
================== mae ==================
dhaka                                             : 0.3006 | 0.2956
…
